…
92019it [00:01, 71525.00it/s]
99151it [00:01, 59070.39it/s]
106461it [00:01, 62676.60it/s]
113817it [00:01, 65585.90it/s]
121143it [00:01, 67711.62it/s]
128194it [00:01, 68526.26it/s]
135571it [00:01, 70017.05it/s]
142879it [00:02, 70907.27it/s]
150068it [00:02, 71198.07it/s]
157302it [00:02, 71534.44it/s]
164493it [00:02, 71380.42it/s]
171829it [00:02, 71961.99it/s]
179045it [00:02, 71434.85it/s]
186555it [00:02, 72496.19it/s]
193819it [00:02, 55774.56it/s]
201063it [00:02, 59909.06it/s]
202601it [00:02, 67584.68it/s]
[2021-01-13 17:34:15,945] [TRAIN] - Discriminator(
  (cnn): Sequential(
    (0): Conv2d(3, 128, kernel_size=(4, 4), stride=(2, 2), padding=(1, 1))
    (1): BatchNorm2d(128, eps=1e-05, momentum=0.1, affine=True, track_running_stats=True)
    (2): ReLU()
    (3): Dropout(p=0.2, inplace=False)
    (4): Conv2d(128, 256, kernel_size=(4, 4), stride=(2, 2), padding=(1, 1))
    (5): BatchNorm2d(256, eps=1e-05, momentum=0.1, affine=True, track_running_stats=True)
    (6): ReLU()
    (7): Dropout(p=0.2, inplace=False)
    (8): Conv2d(256, 512, kernel_size=(4, 4), stride=(2, 2), padding=(1, 1))
    (9): BatchNorm2d(512, eps=1e-05, momentum=0.1, affine=True, track_running_stats=True)
    (10): ReLU()
    (11): Dropout(p=0.2, inplace=False)
    (12): Conv2d(512, 1024, kernel_size=(4, 4), stride=(2, 2), padding=(1, 1))
    (13): MaxPool2d(kernel_size=4, stride=4, padding=0, dilation=1, ceil_mode=False)
  )
  (linaer1): Linear(in_features=1024, out_features=256, bias=True)
  (relu): ReLU()
  (dropout): Dropout(p=0.5, inplace=False)
  (linaer2): Linear(in_features=256, out_features=1, bias=True)
)
Params: 11282561
[2021-01-13 17:34:15,945] [TRAIN] - Generator(
  (cnn): Sequential(
    (0): ConvTranspose2d(128, 1024, kernel_size=(4, 4), stride=(1, 1))
    (1): BatchNorm2d(1024, eps=1e-05, momentum=0.1, affine=True, track_running_stats=True)
    (2): ReLU()
    (3): ConvTranspose2d(1024, 512, kernel_size=(2, 2), stride=(2, 2))
    (4): BatchNorm2d(512, eps=1e-05, momentum=0.1, affine=True, track_running_stats=True)
    (5): ReLU()
    (6): ConvTranspose2d(512, 256, kernel_size=(2, 2), stride=(2, 2))
    (7): BatchNorm2d(256, eps=1e-05, momentum=0.1, affine=True, track_running_stats=True)
    (8): ReLU()
    (9): ConvTranspose2d(256, 128, kernel_size=(2, 2), stride=(2, 2))
    (10): BatchNorm2d(128, eps=1e-05, momentum=0.1, affine=True, track_running_stats=True)
    (11): ReLU()
    (12): ConvTranspose2d(128, 3, kernel_size=(4, 4), stride=(2, 2), padding=(1, 1))
  )
)
Params: 4861571
--- EPOCH 1/150 ---
Discriminator loss: 1.0377693188310875
Generator loss:     1.103181165878219
Saved checkpoint.
--- EPOCH 2/150 ---
Discriminator loss: 0.9405622122564701
Generator loss:     1.3360546240300843
Saved checkpoint.
--- EPOCH 3/150 ---
Discriminator loss: 0.8869046344600543
Generator loss:     1.4829394877559008
…
