[2021-01-09 16:43:12,850] [TRAIN] - main:
  experiment_name_prefix: my_exp
  seed: 1
  num_workers: 6
  parallel: false
  gpus_to_use: 1,2
  trains: false
  image_shape: 64
  paths:
    train: data/CelebA
    validation: data/validation.pkl
    logs: logs/
train:
  num_epochs: 15
  grad_clip: 0.25
  dropout: 0.2
  num_hid: 20
  batch_size: 16
  in_channel: 3
  z_shape: 128
  save_model: false
  lr:
    lr_gen_value: 0.001
    lr_des_value: 8.0e-06

[2021-01-09 16:43:14,496] [TRAIN] - Discriminator(
  (cnn): Sequential(
    (0): Conv2d(3, 128, kernel_size=(4, 4), stride=(2, 2), padding=(1, 1))
    (1): BatchNorm2d(128, eps=1e-05, momentum=0.1, affine=True, track_running_stats=True)
    (2): ReLU()
    (3): Dropout(p=0.2, inplace=False)
    (4): Conv2d(128, 256, kernel_size=(4, 4), stride=(2, 2), padding=(1, 1))
    (5): BatchNorm2d(256, eps=1e-05, momentum=0.1, affine=True, track_running_stats=True)
    (6): ReLU()
    (7): Dropout(p=0.2, inplace=False)
    (8): Conv2d(256, 512, kernel_size=(4, 4), stride=(2, 2), padding=(1, 1))
    (9): BatchNorm2d(512, eps=1e-05, momentum=0.1, affine=True, track_running_stats=True)
    (10): ReLU()
    (11): Dropout(p=0.2, inplace=False)
    (12): Conv2d(512, 1024, kernel_size=(4, 4), stride=(2, 2), padding=(1, 1))
    (13): MaxPool2d(kernel_size=4, stride=4, padding=0, dilation=1, ceil_mode=False)
  )
  (linaer1): Linear(in_features=1024, out_features=256, bias=True)
  (relu): ReLU()
  (dropout): Dropout(p=0.5, inplace=False)
  (linaer2): Linear(in_features=256, out_features=1, bias=True)
)
Params: 11282561
[2021-01-09 16:43:14,616] [TRAIN] - Generator(
  (cnn): Sequential(
    (0): ConvTranspose2d(128, 1024, kernel_size=(4, 4), stride=(1, 1))
    (1): BatchNorm2d(1024, eps=1e-05, momentum=0.1, affine=True, track_running_stats=True)
    (2): ReLU()
    (3): ConvTranspose2d(1024, 512, kernel_size=(2, 2), stride=(2, 2))
    (4): BatchNorm2d(512, eps=1e-05, momentum=0.1, affine=True, track_running_stats=True)
    (5): ReLU()
    (6): ConvTranspose2d(512, 256, kernel_size=(2, 2), stride=(2, 2))
    (7): BatchNorm2d(256, eps=1e-05, momentum=0.1, affine=True, track_running_stats=True)
    (8): ReLU()
    (9): ConvTranspose2d(256, 128, kernel_size=(2, 2), stride=(2, 2))
    (10): BatchNorm2d(128, eps=1e-05, momentum=0.1, affine=True, track_running_stats=True)
    (11): ReLU()
    (12): ConvTranspose2d(128, 3, kernel_size=(4, 4), stride=(2, 2), padding=(1, 1))
  )
)
Params: 4861571
